checkpoint_actor.pth (torch_old, 147142 bytes, 8 tensors)

fc1.weight f4 [128, 24]
-0.012224143 -0.07412422 0.09259227 0.014347293 -0.021696182 0.073689036 -0.048278842 0.09035067
-0.04325282 0.056358326 -0.03173501 -0.0030406518 -0.073539354 0.06685461 -0.036734816 0.08315029
-0.07471815 -0.06431064 0.018277215 0.009773506 -0.03700353 0.07571419 0.06469392 -0.07676217
-0.07424451 -0.07855039 0.01943777 0.043297295 0.13558567 -0.022328394 0.013935908 -0.07874567
0.06355004 0.08749287 -0.050751183 -0.04726534 0.03403706 0.06600195 -0.017300835 -0.09128761
-0.03542522 0.0015572588 -0.07797546 -0.0065939324 0.014781209 -0.0315367 0.043316294 -0.13502465
0.015704466 -0.056753587 0.07106681 -0.052488405 -0.051123045 0.14048545 0.06480983 -0.022990596
0.033605874 -0.10478411 -0.050568167 0.070775285 0.03849145 0.11780458 -0.07135733 0.009148793
-0.06193652 -0.087194204 0.03147336 0.03537519 0.046624847 0.060133155 -0.0022609362 -0.10957977
-0.07365888 0.0416371 -0.014726229 -0.047603577 -0.107619025 -0.045003545 -0.031596925 -0.03640256
0.04319585 -0.13132648 0.03783649 -0.014582521 -0.19020851 0.04668789 0.021713577 -0.079145685
-0.014989641 -0.11401058 0.034915112 0.033584718 -0.09933054 0.040544804 0.03508482 0.0079170875
-0.045493785 0.08982992 -0.093046986 -0.056844212 -0.056206536 -0.07416094 0.05112222 -0.079678215
-0.11348798 -0.08272869 0.026470888 0.024986774 -0.069262825 -0.0014766983 -0.065437235 -0.066411175
-0.07794605 -0.047897115 -0.056816667 0.097003825 -0.07187889 -0.01968451 -0.051949568 0.064309634
-0.06332957 -0.049865063 0.03316276 -0.021169137 -0.0038815911 -0.08052812 -0.04560252 0.05225103
-0.039145675 0.005300775 -0.075324446 0.057986174 0.09688996 0.024225939 -0.00088073435 0.018994275
-0.029628422 0.039674703 -0.11214868 0.045339543 -0.069338664 0.022798264 -0.08191587 -0.012392787
-0.09075642 -0.025364932 -0.03632395 -0.07698428 -0.11776825 -0.07020832 0.041485738 0.022701243
0.008662188 0.046269633 -0.07948675 -0.054721672 -0.033605535 -0.060886428 -0.020938488 -0.048561692
-0.068405315 0.021522688 -0.0762946 0.06689949 0.09276651 0.059634697 -0.026957015 -0.054449443
-0.03210931 -0.0131943375 0.011555233 0.04614423 -0.10670324 0.10886157 0.13499448 0.112025574
-0.07493885 0.10346722 0.07874121 0.07592201 -0.021409666 0.06435029 -0.058333572 -0.049770445
0.017190361 0.015939351 -0.020048564 -0.09334544 0.031240158 -0.07582813 0.09690365 0.017417323
0.08286709 0.108486876 0.009772391 -0.07085537 -0.011500917 0.06970513 0.0002795899 -0.008072739
0.07405989 0.13670653 -0.053681403 -0.048492104 -0.03733203 0.06107335 0.05052476 -0.08479791
0.046953645 0.02330498 0.046226185 0.07454621 -0.06783791 0.04753391 0.0215998 -0.0067569925
-0.110309914 -0.07987284 0.046022806 -0.02615876 -0.12147234 0.116987675 0.034199852 0.020689366
-0.03965972 0.056330383 0.1174142 0.025653847 0.029701598 -0.060667384 -0.047031622 -0.080878936
-0.045231957 -0.01387586 0.06455366 -0.10209503 -0.042302478 -0.068734705 -0.07889019 0.034819692
-0.083457656 -0.04069403 -0.07632722 -0.10593598 -0.017862482 0.07732513 0.023961274 -0.0972794
-0.022812577 0.038783804 -0.07449402 0.060691357 -0.07802505 0.114249766 0.013573932 -0.07881475
00000000: c647 48bc 70ce 97bd 04a1 bd3d e910 6b3c
00000010: 31bc b1bc 47ea 963d 09c0 45bd c609 b93d
00000020: de29 31bd fdd7 663d 92fc 01bd ac45 47bb
00000030: cd9b 96bd 12eb 883d 3f77 16bd b34a aa3d
00000040: d405 99bd 4cb5 83bd 19ba 953c 0e21 203c
00000050: 0391 17bd 0b10 9b3d 3f7e 843d 7c35 9dbd
00000060: 810d 98bd 07df a0bd f53b 9f3c 8158 313d
00000070: f8d6 0a3e 09ea b6bc 6f53 643c 6945 a1bd
00000080: 8626 823d 762f b33d 79e0 4fbd 4d99 41bd
00000090: 726a 0b3d 082c 873d 7bba 8dbc 00f5 babd
000000a0: 091a 11bd ef1c cc3a 99b1 9fbd ea11 d8bb
000000b0: e22c 723c a02c 01bd 6d6c 313d e743 0abe
000000c0: a7a6 803c 7376 68bd 7a8b 913d 15fe 56bd
000000d0: 6666 51bd 6bdb 0f3e 04bb 843d c656 bcbc
000000e0: 50a6 093d 0d99 d6bd 9120 4fbd a2f2 903d
000000f0: 36a9 1d3d 8743 f13d cb23 92bd d2e4 153c
00000100: 26b1 7dbd e092 b2bd 36ea 003d 93e5 103d
00000110: b2f9 3e3d 2f4e 763d 372c 14bb 5c6b e0bd
00000120: 78da 96bd aa8b 2a3d 4846 71bc f8fb 42bd
00000130: 5d67 dcbd a355 38bd c76b 01bd da1a 15bd
00000140: 22ee 303d 737a 06be 6ffa 1a3d 87eb 6ebc
00000150: 05c6 42be cd3b 3f3d ace0 b13c 2217 a2bd
00000160: 1c97 75bc 617e e9bd 2603 0f3d 2190 093d
00000170: cf6d cbbd 4f12 263d 1ab5 0f3d acb6 013c
00000180: b157 3abd c0f8 b73d 6b8f bebd 7ad5 68bd
00000190: d338 66bd b1e1 97bd 8865 513d 552e a3bd
000001a0: 636c e8bd a96d a9bd 7ad9 d83c 10b1 cc3c
000001b0: abd9 8dbd c68d c1ba f503 86bd 9502 88bd
000001c0: 2ea2 9fbd c42f 44bd 98b8 68bd f1a9 c63d
000001d0: 3d35 93bd 6941 a1bc 12c9 54bd c5b4 833d
000001e0: efb2 81bd 4f3f 4cbd add5 073d e66a adbc
000001f0: 4b62 7ebb edeb a4bd b5c9 3abd 2d05 563d
00000200: 3757 20bd 20b2 ad3b b443 9abd e982 6d3d
00000210: 3e6e c63d 7a75 c63c 15e1 66ba e299 9b3c
00000220: 4eb7 f2bc f181 223d 35ae e5bd f5b5 393d
00000230: 6e01 8ebd 6dc3 ba3c 82c3 a7bd 1e0b 4bbc
00000240: 80de b9bd 1eca cfbc 6cc8 14bd efa9 9dbd
00000250: 7b30 f1bd 61c9 8fbd f3ec 293d f5f7 b93c
00000260: daeb 0d3c 3a85 3d3d f3c9 a2bd d523 60bd
00000270: f5a5 09bd 0c64 79bd 3187 abbc a0e8 46bd
00000280: 1618 8cbd 5950 b03c 5840 9cbd 9a02 893d
00000290: 5efc bd3d 8343 743d f5d4 dcbc 6106 5fbd
000002a0: 0d85 03bd 102d 58bc 2952 3d3c bb01 3d3d
000002b0: 3a87 dabd d1f2 de3d fe3b 0a3e aa6d e53d
000002c0: 8a79 99bd 9fe6 d33d 1243 a13d 007d 9b3d
000002d0: 5363 afbc 16ca 833d 2fef 6ebd 18dc 4bbd
000002e0: cdd2 8c3c 3e93 823c e33c a4bc e52b bfbd
000002f0: 5ceb ff3c c74b 9bbd 6c75 c63d c6ae 8e3c
00000300: 39b6 a93d 5e2e de3d 611c 203c 9f1c 91bd
00000310: 586e 3cbc 90c1 8e3d ec95 9239 8543 04bc
00000320: b6ac 973d ccfc 0b3e 08e1 5bbd a89f 46bd
00000330: 78e9 18bd 0d28 7a3d 0df3 4e3d 87aa adbd
00000340: 7752 403d 16ea be3c ab57 3d3d afab 983d
00000350: 9aee 8abd ebb2 423d 10f2 b03c c369 ddbb
00000360: 2aea e1bd 5f94 a3bd 6982 3c3d e54a d6bc
00000370: 7dc6 f8bd 3c97 ef3d 2515 0c3d bf7c a93c
00000380: 3b72 22bd b0ba 663d db76 f03d 0428 d23c
00000390: c450 f33c 5d7e 78bd 3ba4 40bd dba3 a5bd
000003a0: 2545 39bd 9357 63bc b634 843d 3317 d1bd
000003b0: 5d45 2dbd c8c4 8cbd 2e91 a1bd 189f 0e3d
000003c0: d9eb aabd c8ae 26bd 7251 9cbd f7f4 d8bd
000003d0: 5754 92bc a35c 9e3d 6f4a c43c 6c3a c7bd
000003e0: 71e1 babc c4db 1e3d 5290 98bd 8097 783d
000003f0: 99cb 9fbd c8fb e93d 3365 5e3c a169 a1bd

fc1.bias f4 [128]
0.20337346 0.20064281 -0.13260762 -0.046373665 0.12714605 -0.11348787 0.050141215 -0.035773285
0.022970656 0.13764095 0.08129993 0.17301814 -0.022472927 0.12911524 0.09854765 -0.0031740852
-0.14850648 0.20900778 -0.035966247 0.15895607 0.17443472 0.01632637 -0.14009231 0.044195283
-0.10450364 0.06580333 -0.09498306 0.18722445 -0.19851284 -0.021087602 0.068186775 0.080361195
0.15668172 -0.10790425 -0.17735158 0.17021191 0.0933853 0.15471074 -0.10255896 -0.08582782
-0.06957575 0.05797529 0.07191539 -0.10703348 -0.0019167834 0.0071990215 0.20896406 -0.07062235
0.1822676 -0.11078467 -0.03695299 -0.14994256 0.16253592 -0.13591582 0.10652783 -0.039046127
0.2174907 0.040501133 -0.15059827 0.059740435 0.05297958 -0.19336304 0.083103836 0.20219757
0.08194901 0.025689656 -0.018088413 0.09256965 -0.065796316 0.21800141 0.2243669 0.1154261
-0.076943174 -0.17954935 -0.11433745 0.22706118 -0.1844574 -0.15308085 0.029030155 0.10286529
-0.17868567 -0.15082946 0.0013349918 -0.05948437 0.17841776 0.049040668 -0.13424787 -0.13784552
0.1974101 0.008609964 -0.07593729 0.08332971 -0.029227296 0.12034944 0.07774138 -0.056417815
-0.15185767 0.051745124 -0.1445886 0.02978282 0.065974645 -0.08550505 0.13890381 -0.10191031
0.0967185 0.052133415 0.0972086 -0.16306265 -0.0047948356 0.10755034 -0.13079268 0.07815148
-0.0023917404 0.17499517 -0.047586992 0.008346386 -0.08709646 -0.04406912 0.077285364 -0.13939857
0.17990552 0.16929609 0.11121111 0.2026162 -0.0504574 0.04397476 0.03541233 -0.116267756
00000000: 2241 503e 4f75 4d3e 4bca 07be 50f2 3dbd
00000010: 9332 023e 546c e8bd e060 4d3d 0287 12bd
00000020: f52c bc3c c0f1 0c3e 9480 a63d ab2b 313e
00000030: 2519 b8bc c936 043e 5ad3 c93d 5004 50bb
00000040: 1512 18be 2306 563e 5851 13bd 61c5 223e
00000050: 049f 323e e1be 853c 5c74 0fbe 1d06 353d
00000060: 0106 d6bd e5c3 863d 7b86 c2bd c4b7 3f3e
00000070: f346 4bbe e8bf acbc 82a5 8b3d 6994 a43d
00000080: 2c71 203e e7fc dcbd a79b 35be 084c 2e3e
00000090: cb40 bf3d 7e6c 1e3e 6f0a d2bd 7fc6 afbd
000000a0: bb7d 8ebd 7f77 6d3d 6048 933d 5f34 dbbd
000000b0: 943c fbba c5e5 eb3b adfa 553e 73a2 90bd
000000c0: 5ca4 3a3e 13e3 e2bd 055c 17bd 8b8a 19be
000000d0: d16f 263e 842d 0bbe 432b da3d d5ee 1fbd
000000e0: e2b5 5e3e 84e4 253d 6f36 1abe 63b2 743d
000000f0: 1e01 593d f600 46be 5832 aa3d e10c 4f3e
00000100: e2d4 a73d 1d73 d23c 272e 94bc 2895 bd3d
00000110: 38c0 86bd c33b 5f3e 70c0 653e 8564 ec3d
00000120: 6294 9dbd c9db 37be c129 eabd ba82 683e
00000130: 67e2 3cbe 3ac1 1cbe a6d0 ed3c 0aab d23d
00000140: 60f9 36be 0a73 1abe e4fa ae3a e2a5 73bd
00000150: 25b3 363e dede 483d 4678 09be 6027 0dbe
00000160: e025 4a3e ce10 0d3c 0385 9bbd c4a8 aa3d
00000170: 156e efbc c479 f63d df36 9f3d 5e16 67bd
00000180: 9480 1bbe b2f2 533d 090f 14be 1afb f33c
00000190: b71d 873d 461d afbd cd3c 0e3e 5ab6 d0bd
000001a0: 5914 c63d d989 553d 4d15 c73d e5f9 26be
000001b0: ff1d 9dbb 5a43 dc3d 84ee 05be e20d a03d
000001c0: bfbe 1cbb ef31 333e 94ea 42bd 48bf 083c
000001d0: a15f b2bd d281 34bd ca47 9e3d 80be 0ebe
000001e0: 2739 383e f45b 2d3e a7c2 e33d 9f7a 4f3e
000001f0: 6bac 4ebd e11e 343d 850c 113d ca1d eebd

fc2.weight f4 [128, 128]
0.08685225 -0.024767226 0.049762968 -0.07225142 -0.042454462 0.018207883 0.047117554 0.022076797
-0.0077818236 0.062805384 -0.022486405 -0.08568956 0.048836842 -0.010139233 0.06115975 0.054313045
-0.038998432 -0.015649252 -0.05092341 0.08823 0.012497446 0.0034528058 0.047468327 0.032856245
-0.046917666 -0.020618139 -0.077485606 0.08305855 -0.054630477 -0.0453579 -0.035944037 -0.04095713
-0.039315633 0.018042546 0.09820613 0.016835377 -0.045504868 0.041302957 0.029199343 0.03416073
0.015953043 -0.049382504 -0.05877624 0.0060936506 0.075486176 0.10693095 -0.016716821 -0.026884094
-0.1349599 0.0036034032 0.06664552 0.06528523 0.04983339 0.033310767 -0.045191143 -0.088448994
0.044388402 0.069392584 -0.018599352 0.005328446 0.005394012 -0.0046396744 0.025695171 -0.02704261
0.07929372 0.05060362 -0.06037568 -0.011520263 0.014264981 -0.014308227 0.01945235 0.1552662
0.012307758 0.10399742 0.070350245 -0.02769329 0.017995963 0.024826122 0.087151356 -0.024362445
-0.010498357 0.078099735 0.052492585 0.0018598032 0.065911375 0.060275264 -0.012317008 0.0923419
0.06203879 0.08974099 -0.017354077 -0.0020045885 0.05795106 0.07214681 0.09473265 0.0884286
-0.15678515 -0.09877608 0.07448667 0.04806641 0.017653087 -0.03011165 -0.0654935 -0.10855365
-0.046409775 0.010855474 0.0539087 -0.04765407 0.11216601 0.0917735 0.10276449 0.048709814
0.07755829 0.047827546 0.0060123727 0.045134064 0.015814548 0.0658218 0.015209816 0.060360137
0.018396514 0.065510534 -0.03196224 -0.10586893 0.016750317 0.052838203 0.07831066 0.0014879748
-0.046057418 0.11031822 0.01713911 -0.11421616 -0.09486518 0.018634802 0.11958653 -0.07154779
0.041467156 -0.09530868 0.093306765 0.03010592 -0.0037087877 0.06967067 0.0884502 0.007241512
-0.06610066 0.08254193 0.09670326 -0.0386919 0.08664504 -0.045710687 0.00018347747 0.085888036
0.0028226979 0.04088512 0.11311807 -0.030724542 8.770078e-05 0.113942035 0.023957796 0.011508017
0.0015280964 0.0133295385 0.030053694 0.03973289 0.07445714 -0.047182627 0.06370497 0.06700398
0.00086698 -0.04553073 -0.083894655 0.10295158 -0.0640933 -0.02084451 0.043601744 -0.096427456
0.034101535 -0.043516878 -0.1959827 -0.16887465 -0.18293954 0.104319215 -0.0896857 -0.006234121
0.045485415 0.0037527678 -0.04805693 0.031342037 -0.07443195 0.03709977 0.10122095 0.018267065
-0.07723822 0.061054815 0.12230949 -0.048128244 0.018241262 0.010530923 0.123979375 0.00933192
0.041262757 -0.0038756977 -0.0011935105 -0.03853038 0.016090551 0.031554468 0.022443965 -0.014127901
0.08644258 -0.0674042 -0.056870412 0.00046110517 -0.03525987 0.070981644 -0.115178354 -0.060313743
-0.013067653 0.08781703 -0.013164015 0.0078018336 -0.04395364 0.06565811 0.025946893 0.09667113
-0.11435908 -0.004162721 0.047869038 -0.013462044 -0.05459074 0.10637862 -0.03791799 -0.13922717
0.042953 -0.040948614 -0.10267604 0.09489403 -0.007530774 -0.054682676 0.05577139 0.03902785
-0.027020695 0.04216681 -0.0067100185 -0.022080967 -0.07159842 0.12004984 0.014161787 0.11330659
0.043799095 0.080041826 0.015576766 0.08581633 0.12604353 -0.009511397 -0.048349667 0.059093725
00000000: 98df b13d a3e4 cabc 41d4 4b3d 8df8 93bd
00000010: bbe4 2dbd b328 953c 56fe 403d 66da b43c
00000020: abfe febb 1ca0 803d 6935 b8bc 027e afbd
00000030: 2409 483d 071f 26bc a582 7a3d 5b77 5e3d
00000040: d2bc 1fbd dc32 80bc 1195 50bd eeb1 b43d
00000050: 16c2 4c3c 7848 623b 266e 423d 4594 063d
00000060: bd2c 40bd 5fe7 a8bc c6b0 9ebd 9a1a aa3d
00000070: 35c4 5fbd 35c9 39bd 0e3a 13bd aac2 27bd
00000080: 6e09 21bd f6cd 933c 4c20 c93d 58ea 893c
00000090: 5063 3abd 4a2d 293d 7633 ef3c 1fec 0b3d
000000a0: f5af 823c 4f45 4abd 5bbf 70bd 3fad c73b
000000b0: 7f98 9a3d 9dfe da3d b7f1 88bc 083c dcbc
000000c0: ee32 0abe 1327 6c3b 727d 883d 43b4 853d
000000d0: 191e 4c3d df70 083d 591a 39bd bf24 b5bd
000000e0: 9dd0 353d b31d 8e3d ab5d 98bc 3f9a ae3b
000000f0: 41c0 b03b 6908 98bb ae7e d23c 7788 ddbc
00000100: bf64 a23d be45 4f3d 7d4c 77bd 7cbf 3cbc
00000110: abb7 693c 0e6d 6abc 895a 9f3c 1afe 1e3e
00000120: 7ba6 493c 99fc d43d ca13 903d 0add e2bc
00000130: 456c 933c 2760 cb3c 697c b23d c093 c7bc
00000140: 4d01 2cbc c1f2 9f3d 7702 573d a4c4 f33a
00000150: 8bfc 863d 32e3 763d 47cd 49bc c01d bd3d
00000160: 631c 7e3d 20ca b73d 232a 8ebc 6a5f 03bb
00000170: 175e 6d3d b5c1 933d 3103 c23d 0e1a b53d
00000180: 498c 20be 1d4b cabd 788c 983d 49e1 443d
00000190: 359d 903c b5ac f6bc 7521 86bd 6051 debd
000001a0: 2d18 3ebd 28db 313c 5ecf 5c3d ea30 43bd
000001b0: 4bb7 e53d bff3 bb3d 3076 d23d f183 473d
000001c0: e1d6 9e3d d1e6 433d 7003 c53b 7fde 383d
000001d0: 838d 813c 94cd 863d 9832 793c 313c 773d
000001e0: 49b4 963c 632a 863d d6ea 02bd cfd1 d8bd
000001f0: f637 893c df6c 583d 5761 a03d 2608 c33a
00000200: b4a6 3cbd 85ee e13d 5267 8c3c 29ea e9bd
00000210: ad48 c2bd 03a8 983c c8e9 f43d a687 92bd
00000220: 77d9 293d 3231 c3bd 9e17 bf3d b1a0 f63c
00000230: 220f 73bb 7faf 8e3d 6125 b53d 354a ed3b
00000240: c85f 87bd be0b a93d 5c0c c63d 667b 1ebd
00000250: f472 b13d 213b 3bbd dc63 4039 11e6 af3d
00000260: 03fd 383b 2877 273d 72aa e73d 09b2 fbbc
00000270: ffeb b738 715a e93d 2443 c43c 1f8c 3c3c
00000280: 684a c83a 2364 5a3c 2a33 f63c f4be 223d
00000290: fc7c 983d 9242 41bd c077 823d 6239 893d
000002a0: 0b46 633a 6e7e 3abd f6d0 abbd 47d8 d23d
000002b0: 5943 83bd 1bc2 aabc be97 323d c27b c5bd
000002c0: 0dae 0b3d c13e 32bd b0af 48be 7aed 2cbe
000002d0: 8154 3bbe 50a5 d53d 23ad b7bd 9947 ccbb
000002e0: ea4e 3a3d fff0 753b 58d7 44bd 8260 003d
000002f0: c76f 98bd eef5 173d ee4c cf3d d0a4 953c
00000300: 122f 9ebd 9d14 7a3d 667d fa3d 1f22 45bd
00000310: b36e 953c e489 2c3c e6e8 fd3d e9e4 183c
00000320: 2303 293d 6bff 7dbb 916f 9cba 08d2 1dbd
00000330: 55d0 833c 423f 013d 68dc b73c b678 67bc
00000340: cf08 b13d 370b 8abd f3f0 68bd 7dc0 f139
00000350: a76c 10bd d35e 913d a1e2 ebbd 8b0b 77bd
00000360: b619 56bc 6ad9 b33d e1ad 57bc 86a6 ff3b
00000370: bb08 34bd c277 863d 948e d43c 83fb c53d
00000380: 1835 eabd 6f67 88bb 5312 443d e88f 5cbc
00000390: 8a9a 5fbd 09dd d93d e54f 1bbd 9191 0ebe
000003a0: 7cef 2f3d bcb9 27bd d147 d2bd cd57 c23d
000003b0: b6c4 f6bb f1fa 5fbd 8b70 643d abdb 1f3d
000003c0: 815a ddbc 1bb7 2c3d b7df dbbb 25e3 b4bc
000003d0: 31a2 92bd b1dc f53d d706 683c 490d e83d
000003e0: ae66 333d f8ec a33d b135 7f3c 79c0 af3d
000003f0: 8e11 013e b1d5 1bbc 4d0a 46bd 430c 723d

fc2.bias f4 [128]
0.09335346 0.0685701 0.017220391 -0.06916182 0.07451269 0.0136501845 0.06197692 -0.054945108
0.057710927 0.007312493 0.066971175 0.010251816 0.00981135 -0.05923172 0.05075307 -0.07683667
-0.09425942 -0.049389403 -0.056167927 -0.01393003 0.04093055 0.034915365 -0.018763194 0.065033056
-0.073264785 0.061876494 -0.011958355 -0.03062641 0.004025191 -0.024285132 0.050235886 0.02442054
0.05480177 -0.0013777533 -0.008031509 0.0344991 0.058268256 0.060397223 0.009496792 0.077990025
-0.045452118 -0.019808969 -0.081417255 -0.06257636 -0.08976349 -0.059425212 0.060622808 -0.012062327
-0.043244746 -0.076339565 -0.057455823 0.020040214 -0.0058356565 0.0026789394 0.056741092 0.10560153
-0.09566816 0.076669425 0.03911892 0.015223778 -0.0027462502 0.07963392 0.014032759 0.067967586
-0.059727456 -0.03517695 -0.001277423 -0.053515516 -0.038454354 0.012071795 -0.06612073 0.032495193
0.10892936 -0.0056489813 0.020951577 0.016849326 0.003753939 0.09056669 -0.050274022 -0.060959924
-0.038184952 0.021281155 -0.02989789 -0.047419384 -0.028784765 0.048499938 0.0027162523 -0.0027420982
0.025563862 -0.01213187 -0.03940039 0.025077388 0.0748523 0.0041820137 0.002403098 0.071869425
0.041272555 0.019190133 0.055950195 0.08033054 0.053710077 -0.030121863 0.055539653 -0.036678426
0.021811714 -0.0015579377 0.007536726 0.030739302 -0.021211656 -0.07618757 -0.048973016 0.00040387062
-0.049602613 -0.08858181 -0.055334933 0.00046586388 -0.04776598 0.0702031 0.045357853 -0.05531494
-0.010478939 -0.003565508 0.028978914 0.057510145 -0.022779578 0.12011994 0.03937879 -0.048001748
00000000: 1930 bf3d 7b6e 8c3d c711 8d3c b6a4 8dbd
00000010: 1c9a 983d 06a5 5f3c 83db 7d3d 1f0e 61bd
00000020: 4b62 6c3d a39d ef3b 2f28 893d 3cf7 273c
00000030: c9bf 203c f69c 72bd 73e2 4f3d 8b5c 9dbd
00000040: 150b c1bd 8b4c 4abd 5710 66bd c83a 64bc
00000050: cba6 273d 6a03 0f3d 45b5 99bc 0d30 853d
00000060: d90b 96bd 3572 7d3d faec 43bc 3de4 fabc
00000070: c0e5 833b 9df1 c6bc 25c4 4d3d 960d c83c
00000080: d277 603d bb95 b4ba 9796 03bc ee4e 0d3d
00000090: b2aa 6e3d 1463 773d 6f98 1b3c 3cb9 9f3d
000000a0: 002c 3abd 6b46 a2bc 17be a6bd 0928 80bd
000000b0: ecd5 b7bd da67 73bd 9f4f 783d 11a1 45bc
000000c0: 6721 31bd eb57 9cbd cc56 6bbd 602b a43c
000000d0: 0939 bfbb 2591 2f3b 5969 683d 9d45 d83d
000000e0: abed c3bd dc04 9d3d 293b 203d 276d 793c
000000f0: 6ffa 33bb 1c17 a33d a8e9 653c 9732 8b3d
00000100: c7a4 74bd b515 10bd 346f a7ba 1633 5bbd
00000110: 5082 1dbd c7c8 453c 4e6a 87bd ae19 053d
00000120: 5b16 df3d 171b b9bb a4a2 ab3c 9907 8a3c
00000130: a504 763b 077b b93d 22ec 4dbd 1db1 79bd
00000140: d367 1cbd d155 ae3c 6bec f4bc d43a 42bd
00000150: 07ce ebbc dfa7 463d 2703 323b c6b4 33bb
00000160: 4e6b d13c c0c4 46bc 4e62 21bd 186f cd3c
00000170: 2a4c 993d 4609 893b 4b7d 1d3b 4730 933d
00000180: 690d 293d a034 9d3c 082c 653d 5784 a43d
00000190: 19ff 5b3d 20c2 f6bc 8c7d 633d 1e3c 16bd
000001a0: 7bae b23c b733 ccba a4f6 f63b fdd0 fb3c
000001b0: 11c4 adbc 3b08 9cbd ee97 48bd 99be d339
000001c0: 1c2c 4bbd 616a b5bd e2a6 62bd 313f f439
000001d0: 43a6 43bd a5c6 8f3d 28c9 393d eb91 62bd
000001e0: dbaf 2bbc 4cab 69bb 3065 ed3c c28f 6b3d
000001f0: 3d9c babc 7101 f63d a74b 213d 7b9d 44bd

fc3.weight f4 [128, 128]
0.008020614 0.057707123 0.106347546 0.0672664 -0.09845316 -0.008659891 0.0036421781 0.076408826
-0.05492908 0.06841737 0.053912792 0.14104506 0.06898761 0.02842231 0.09538972 0.014378634
0.074088335 0.013218501 -0.08386913 0.06984501 0.06943306 -0.01261106 -0.0034783941 0.08303863
0.0020952863 -0.03334136 0.035953894 0.015733043 0.042268388 0.16442113 -0.06515855 -0.051518045
0.16617703 0.122227885 0.076562785 0.012597689 0.075869724 0.10004108 0.10289262 0.07690541
-0.0136131 0.11962665 -0.1413694 0.09950654 0.046354704 0.051318698 -0.038770873 0.0041274237
-0.08440863 0.07596401 -0.00091147056 0.1297901 -0.06845953 0.052875105 0.14068198 -0.06229365
0.06110278 0.004901684 0.2536397 0.0068833083 -0.04956779 -0.09825146 -0.017268876 -0.012334955
0.091651134 -0.022465438 0.11580993 -0.0062678196 -0.09444065 0.10463518 0.1264312 0.001255716
-0.0345703 0.07573896 0.05499643 0.040861987 -0.038430456 -0.03248197 0.037649598 0.11235598
0.05771901 -0.029128324 -0.07283754 0.21547663 -0.044427663 -0.022563202 0.052596167 -0.0025020265
-0.085272454 0.123869434 0.014553324 0.0124861505 0.041153174 0.030163275 -0.0669513 -0.104659826
-0.025137553 -0.03132326 -0.07118079 0.0092162145 -0.018212296 -0.07291244 0.0032039727 -0.04186793
0.10877571 0.021541826 0.104932785 -0.034261327 0.01031526 0.0069320225 0.112155244 -0.0725304
0.03685562 -0.052467555 0.09282107 0.020991107 0.030559544 -0.06036433 0.021105288 -0.095936544
0.032704715 0.06733682 -0.0071476195 0.033725426 0.033332538 0.052017245 0.10887607 0.03375942
-0.04371647 -0.014749151 -0.15313889 0.048883203 -0.013609611 0.059871163 0.0069042672 0.11307805
0.15744206 0.01972352 -0.02997681 -0.022645723 0.035972957 0.11547823 -0.076818146 -0.042927515
-0.031903487 0.09236872 0.08563485 -0.060803156 -0.12631257 -0.019879518 0.041120056 0.017008536
-0.023507899 -0.0013245995 -0.031543966 0.010782736 0.07097233 -0.09275777 0.0011724688 -0.09179327
-0.0364989 -0.12834823 0.048528224 0.010208449 0.09500023 -0.09022072 -0.0016408523 -0.0984273
0.10971896 0.0063853622 0.024613112 0.07492864 -0.13090543 0.018914022 0.06157859 0.033493884
0.033787716 0.0060994145 0.04727905 -0.09276923 -0.044253003 0.052899245 0.050320394 -0.008433211
0.022637725 0.100517556 -0.04899326 0.00254971 -0.022962177 -0.010405041 -0.0019612634 0.037416935
-0.0033700475 0.1032319 -0.073905244 -0.008217193 0.14733487 0.016686687 -0.06503083 0.03129039
0.07614452 -0.13893074 -0.087031335 0.067888595 -0.040565163 -0.02029011 0.04835842 -0.01812788
-0.06120722 0.05563519 -0.07089952 -0.17258321 0.025932195 -0.0011147592 0.06008876 0.03917525
-0.0010789818 -0.038309354 -0.06499252 -0.021407403 -0.0070233024 -0.12157474 0.104801156 0.016589222
0.05378908 0.071861394 0.068746135 0.10732531 0.03642324 -0.03433982 0.0678796 -0.021467222
-0.05444162 0.1135977 0.034306906 -0.024481308 -0.07758023 0.034172878 -0.1081801 0.032362137
-0.088479325 0.007207435 -0.11095615 -0.030070018 0.03113243 0.034461282 0.01666368 0.00014438441
-0.029051706 -0.041806128 -0.019213805 -0.00400196 0.038642608 0.033732507 0.075903945 0.044596475
00000000: e568 033c 4e5e 6c3d becc d93d f7c2 893d
00000010: cfa1 c9bd 37e2 0dbc 9cb1 6e3b 3b7c 9c3d
00000020: 51fd 60bd 681e 8c3d a9d3 5c3d 1e6e 103e
00000030: 6049 8d3d e7d5 e83c af5b c33d 5d94 6b3c
00000040: a0bb 973d 6992 583c 94c3 abbd e70a 8f3d
00000050: ec32 8e3d 9f9e 4ebc c5f5 63bb 2810 aa3d
00000060: 1251 093b f390 08bd 6444 133d 95e2 803c
00000070: 9e21 2d3d 035e 283e d971 85bd 9604 53bd
00000080: 502a 2a3e 9d52 fa3d f3cc 9c3d 8a66 4e3c
00000090: 9661 9b3d 56e2 cc3d 5eb9 d23d 9580 9d3d
000000a0: 7b09 5fbc d1fe f43d 24c3 10be 16ca cb3d
000000b0: 6ede 3d3d 8e33 523d 35ce 1ebd 573f 873b
000000c0: 6fde acbd 0593 9b3d c1ef 6eba b2e7 043e
000000d0: 8334 8cbd 9193 583d f00e 103e a027 7fbd
000000e0: e946 7a3d 4e9e a03b 10dd 813e 608d e13b
000000f0: 9807 4bbd 1038 c9bd 7577 8dbc 8d18 4abc
00000100: 97b3 bb3d 7009 b8bc c22d ed3d 4862 cdbb
00000110: 196a c1bd f84a d63d 2e77 013e d696 a43a
00000120: 9699 0dbd 071d 9b3d f043 613d e65e 273d
00000130: 4169 1dbd d00b 05bd 7736 1a3d e41a e63d
00000140: c56a 6c3d 869e eebc d92b 95bd e8a5 5c3e
00000150: c8f9 35bd 77d6 b8bc 146f 573d 0af9 23bb
00000160: 53a3 aebd 42af fd3d 1171 6e3c b692 4c3c
00000170: 3b90 283d f918 f73c c31d 89bd e457 d6bd
00000180: 45ed cdbc d24c 00bd 3cc7 91bd 9bff 163c
00000190: f431 95bc 1e53 95bd bef9 513b b57d 2bbd
000001a0: cdc5 de3d 7c78 b03c 00e7 d63d 9b55 0cbd
000001b0: 5601 293c 0526 e33b a6b1 e53d d18a 94bd
000001c0: ebf5 163d 38e8 56bd f918 be3d 8bf5 ab3c
000001d0: 0258 fa3c 9640 77bd ffe4 ac3c 617a c4bd
000001e0: 61f5 053d e3e7 893d 9436 eabb ac23 0a3d
000001f0: b387 083d 0910 553d 6bfa de3d 5147 0a3d
00000200: 0b10 33bd 6ca6 71bc 71d0 1cbe c139 483d
00000210: d9fa 5ebc 773b 753d 313d e23b 7795 e73d
00000220: 7e38 213e 3893 a13c ed91 f5bc 8683 b9bc
00000230: 6158 133d da7f ec3d d552 9dbd c3d4 2fbd
00000240: 3bad 02bd d02b bd3d 5361 af3d bb0c 79bd
00000250: 1558 01be 5fda a2bc 816d 283d 7c55 8b3c
00000260: a393 c0bc 2f9e adba 3f34 01bd 13aa 303c
00000270: f159 913d c9f7 bdbd 86ad 993a 1cfe bbbd
00000280: df7f 15bd b86d 03be 88c5 463d 5741 273c
00000290: 7b8f c23d a4c5 b8bd de11 d7ba 4194 c9bd
000002a0: 56b4 e03d 4d3c d13b 70a1 c93c 3074 993d
000002b0: 130c 06be 94f1 9a3c d539 7c3d e230 093d
000002c0: fd64 0a3d 99dd c73b ada7 413d cbfd bdbd
000002d0: a342 35bd e1ac 583d c21c 4e3d 732b 0abc
000002e0: c072 b93c 26dc cd3d 28ad 48bd 0919 273b
000002f0: 2d1b bcbc e879 2abc 8a88 00bb 8042 193d
00000300: 04dc 5cbb 3f6b d33d a25b 97bd 68a1 06bc
00000310: f4de 163e 85b2 883c e22e 85bd 5a2a 003d
00000320: a8f1 9b3d dc43 0ebe 7c3d b2bd 2d09 8b3d
00000330: a827 26bd 7237 a6bc 7b13 463d eb80 94bc
00000340: 6cb4 7abd bae1 633d c433 91bd a7b9 30be
00000350: c16f d43c 1d1d 92ba a21f 763d 3a76 203d
00000360: 9f6c 8dba 45ea 1cbd cc1a 85bd 945e afbc
00000370: bb23 e6bb 2dfc f8bd fda1 d63d 1fe6 873c
00000380: f051 5c3d 112c 933d c6ca 8c3d 5fcd db3d
00000390: 8930 153d e9a7 0cbd 7604 8b3d 07dc afbc
000003a0: 2dfe 5ebd e9a5 e83d 6685 0c3d 068d c8bc
000003b0: 62e2 9ebd dcf8 0b3d 878d ddbd 298e 043d
000003c0: a634 b5bd 592c ec3b fa3c e3bd 6655 f6bc
000003d0: 7009 ff3c 4627 0d3d 4582 883c e565 1739
000003e0: d8fd edbc e73c 2bbd 4566 9dbc e022 83bb
000003f0: b647 1e3d 192b 0a3d 8773 9b3d cbaa 363d

fc3.bias f4 [128]
0.07814296 0.05753216 0.041360226 -0.03935668 0.015396486 0.048690293 0.02067798 0.08812469
-0.07795488 -0.021488514 -0.061464768 0.092569195 0.005995577 -0.010471254 -0.016634751 0.07629923
0.07482492 -0.016437124 -0.051076196 -0.04390952 -0.04100791 -0.013346131 -0.075479716 0.039485738
0.01002358 0.021858625 0.0461558 -0.009874423 -0.03544141 0.08943984 -0.040203966 0.064903244
-0.036383856 0.05179979 -0.020909281 -0.011064769 0.024255846 0.107757464 0.022784162 0.077103935
0.008868099 0.10508589 0.02849346 -0.026323657 0.030614553 0.099124774 0.011135778 0.03538606
0.050148647 -0.031676017 -0.01657438 0.075446434 -0.01447063 0.03805158 -0.03921841 0.08837917
-0.038503274 -0.032133654 -0.05273903 0.024718365 -0.024391556 0.05346682 0.041523643 0.00339049
0.017131042 -0.022708166 0.046506036 0.033373706 -0.03409071 -0.063511245 0.09737625 0.08565147
-0.028023204 -0.041037895 0.03141425 0.0017739706 -0.026068509 0.025862452 0.0067486735 0.058858197
0.0560165 0.055037934 0.042836692 -0.024416715 0.06095184 -0.030947598 0.08695459 0.021260664
0.07949657 0.023735996 0.020112583 -0.004070882 -0.035165265 -0.037854232 -0.062090702 -0.03031571
0.09545327 -0.037451427 -0.034936182 -0.03528841 0.06644672 -0.0058746007 0.006213017 -0.07713457
-0.056944862 0.027931951 0.027370054 0.027297871 -0.028744688 0.017987961 -0.043911643 0.050850153
-0.017416539 -0.03605546 -0.0012547298 0.0814269 -0.021030596 -0.042307265 0.040997848 0.0044920524
-0.08366481 0.10472801 -0.057248686 -0.05812441 -0.010735239 -0.056175712 0.01945365 -0.028863078
00000000: 6b09 a03d d8a6 6b3d 5769 293d 7834 21bd
00000010: 8b41 7c3c 796f 473d de64 a93c b87a b43d
00000020: cfa6 9fbd ae08 b0bc 7bc2 7bbd eb94 bd3d
00000030: 8c76 c43b 9f8f 2bbc 9a45 88bc c542 9c3d
00000040: cf3d 993d 26a7 86bc 4635 51bd 78da 33bd
00000050: e9f7 27bd bba9 5abc 1c95 9abd ccbb 213d
00000060: f139 243c dc10 b33c dd0d 3d3d 55c8 21bc
00000070: 032b 11bd 3c2c b73d eaac 24bd feeb 843d
00000080: 3d07 15bd 042c 543d f149 abbc 0149 35bc
00000090: 32b4 c63c f2af dc3d daa5 ba3c abe8 9d3d
000000a0: 814b 113c 4537 d73d 1e6b e93c b6a4 d7bc
000000b0: 5fcb fa3c ee01 cb3d d772 363c f9f0 103d
000000c0: ab68 4d3d b6be 01bd ffc6 87bc a983 9a3d
000000d0: 3916 6dbc f9db 1b3d 7ca3 20bd 2300 b53d
000000e0: 9cb5 1dbd 949e 03bd e204 58bd 2b7e ca3c
000000f0: cdd0 c7bc 0600 5b3d b214 2a3d fc32 5e3b
00000100: 6656 8c3c 7a06 babc 1d7d 3e3d deb2 083d
00000110: b3a2 0bbd 2f12 82bd 336d c73d 0a6a af3d
00000120: eb90 e5bc 5a17 28bd 3bac 003d 9384 e83a
00000130: a08d d5bc 7edd d33c fa23 dd3b 4b15 713d
00000140: 8f71 653d 756f 613d 8775 2f3d 9005 c8bc
00000150: a3a8 793d d185 fdbc 4015 b23d d82a ae3c
00000160: 19cf a23d fe71 c23c 25c3 a43c 0965 85bb
00000170: 7409 10bd 0a0d 1bbd d252 7ebd a758 f8bc
00000180: 017d c33d ab66 19bd 3e19 0fbd 948a 10bd
00000190: 3815 883d b97f c0bb 9096 cb3b bbf8 9dbd
000001a0: 043f 69bd 8cd1 e43c 2a37 e03c c99f df3c
000001b0: fb79 ebbc 7d5b 933c b2dc 33bd 4048 503d
000001c0: 21ad 8ebc e4ae 13bd bf75 a4ba 26c3 a63d
000001d0: 5b48 acbc 624a 2dbd 5ced 273d 1132 933b
000001e0: 7558 abbd a47b d63d 997d 6abd dd13 6ebd
000001f0: dbe2 2fbc 8118 66bd 435d 9f3c 4372 ecbc

fc4.weight f4 [2, 128]
-0.074231215 0.025844125 -0.098288596 -0.08470378 -0.01851634 -0.07080989 0.00836831 0.074662246
-0.04135057 -0.0087610595 -0.03684027 -0.10262864 0.047518823 0.047526058 -0.07595297 0.07087925
0.027238682 -0.0024758368 0.1596469 -0.04939265 -0.10982856 0.0033840497 -0.034107402 0.16051218
0.037898175 0.0069977846 -0.018333625 0.02065124 -0.114314035 -0.027009925 0.016995959 -0.084345296
0.088731274 0.025596453 -0.036363557 0.07541792 -0.08735924 0.030648066 0.027414385 -0.01833464
-0.05989116 0.07114918 -0.066835254 0.047758598 -0.013358797 0.17367637 0.007251365 0.025656547
-0.04222529 -0.098617345 -0.08347619 -0.08689664 0.050702352 0.016882384 0.06569599 -0.07499684
-0.06690753 -0.100781925 0.049521077 0.06544056 -0.08779248 0.010403961 -0.084311396 0.06799696
-0.05202401 0.016315095 0.068586394 0.057619218 -0.026897153 0.18923664 0.022184357 0.016672598
0.013333562 -0.033766553 0.020297416 -0.04638365 0.09569359 0.06368761 0.06496184 -0.09579878
0.03985192 -0.08425771 -0.08248945 -0.05679503 0.062179457 -0.08153676 0.020048657 0.02690034
-0.060330544 -0.06881598 -0.0855866 -0.042386416 -0.043117248 -0.13169287 -0.03399265 0.026980318
0.07485502 -0.014502607 0.009552626 -0.069606796 0.043838542 0.07428077 0.074145295 0.04143078
0.014742515 -0.16880423 -0.014689339 0.04108738 -0.10147735 -0.03229613 -0.004476101 -0.066003926
0.06074471 0.07418341 0.071715355 0.092734516 0.025663344 0.07325369 -0.05721705 -0.10263187
-0.100110225 0.04043779 -0.053631745 -0.03671966 -0.07105463 -0.009749027 -0.06482315 -0.047702633
0.009844701 -0.047899954 -0.0064504617 -0.0051176446 -0.11441554 0.025702564 -0.06651268 0.11638554
-0.07880998 0.1425334 0.11578592 0.0010048742 -0.049238723 -0.051714085 0.024771605 -0.02335832
0.12352086 0.116189115 -0.084738925 0.061728172 -0.019289747 -0.082488455 0.037867796 -0.22530803
-0.04949385 0.20531227 0.14198123 0.110564515 -0.026177257 0.15149564 -0.0759868 -0.015080831
-0.0074718837 0.12890011 0.07042563 -0.21170834 0.040151164 -0.057105374 -0.075234346 0.1079685
0.01971375 -0.0018300255 0.00087238423 -0.030812282 0.20625804 0.10840625 -0.07055802 0.1420238
0.12825853 -0.01188635 -0.009284565 0.021590615 -0.01937835 -0.08958546 -0.022662763 0.010595867
0.006799563 -0.0030443072 -0.033857495 0.06927423 -0.0015263512 0.11485767 -0.050323907 0.04050248
-0.07821063 0.15475553 0.063751675 0.06039697 -0.1048342 -0.20872936 -0.061605882 -0.053317957
-0.061375916 0.059618738 -0.08362945 0.053210746 0.08581015 0.06688671 0.07774351 0.05982583
-0.050496366 0.01512936 0.015735323 0.007696085 0.037261683 0.06275635 -0.065154724 -0.063405685
-0.06096959 0.045048084 -0.07062486 0.048843417 0.07108907 -0.17677821 -0.10126044 -0.05886428
0.07438535 0.112227835 0.15308389 -0.056038085 -0.055601228 0.01032461 0.040194396 0.003855177
0.014492243 -0.058922715 0.13807501 -0.05685335 -0.01496986 0.09374876 0.116535895 0.053076006
0.0038619693 0.054739185 0.0007836521 -0.035093974 -0.07475682 0.056526754 0.03573251 -0.093604624
-0.07048334 0.034464467 0.021986982 0.13657255 -0.0005072452 0.17204368 0.03638319 0.08140442
00000000: 8906 98bd 0fb7 d33c 884b c9bd 2d79 adbd
00000010: 94af 97bc c704 91bd 3c1b 093c 85e8 983d
00000020: 375f 29bd 8c8a 0fbc d3e5 16bd f72e d2bd
00000030: 19a3 423d afaa 423d 3b8d 9bbd 2429 913d
00000040: a823 df3c a641 22bb 7a7a 233e f34f 4abd
00000050: cced e0bd efc6 5d3b 34b4 0bbd 4e5d 243e
00000060: 1e3b 1b3d ac4d e53b 6630 96bc ca2c a93c
00000070: 7a1d eabd eb43 ddbc 1c3b 8b3c 3abd acbd
00000080: beb8 b53d a7af d13c f4f1 14bd b674 9a3d
00000090: 67e9 b2bd a711 fb3c 2294 e03c 8732 96bc
000000a0: 6f50 75bd a9b6 913d ece0 88bd 859e 433d
000000b0: dbde 5abc 38d8 313e dc9c ed3b ae2d d23c
000000c0: 6df4 2cbd e4f7 c9bd 91f5 aabd def6 b1bd
000000d0: 45ad 4f3d ed4c 8a3c 9f8b 863d f197 99bd
000000e0: d106 89bd c166 cebd 9dd6 4a3d b305 863d
000000f0: 8bcc b3bd 6075 2a3c 74ab acbd fd41 8b3d
00000100: 2117 55bd 3ca7 853c 0677 8c3d 2102 6c3d
00000110: 6b57 dcbc 40c7 413e f8bb b53c f994 883c
00000120: 0375 5a3c cc4e 0abd c446 a63c c8fc 3dbd
00000130: 00fb c33d a66e 823d b70a 853d 2732 c4bd
00000140: c43b 233d 4e8f acbd 3bf0 a8bd e8a1 68bd
00000150: e3af 7e3d bffc a6bd 153d a43c 1a5e dc3c
00000160: 291d 77bd 64ef 8cbd 0748 afbd 619d 2dbd
00000170: b69b 30bd 7fda 06be e13b 0bbd d405 dd3c
00000180: 974d 993d 589c 6dbc 9e82 1c3c 028e 8ebd
00000190: 0b90 333d 8420 983d 7dd9 973d 52b3 293d
000001a0: 978a 713c 04db 2cbe 8eab 70bc 3e4b 283d
000001b0: 5bd3 cfbd f248 04bd 42ac 92bb 112d 87bd
000001c0: 72cf 783d 79ed 973d 80df 923d 98eb bd3d
000001d0: ef3b d23c 0806 963d 6d5c 6abd a830 d2bd
000001e0: 9706 cdbd 19a2 253d f6ac 5bbd 5b67 16bd
000001f0: 1785 91bd 62ba 1fbc 00c2 84bd d663 43bd
00000200: ab4b 213c be32 44bd 655e d3bb eab1 a7bb
00000210: b252 eabd 2f8e d23c cd37 88bd 8b5b ee3d
00000220: 2067 a1bd 47f4 113e 2b21 ed3d fcb5 833a
00000230: 8bae 49bd 26d2 53bd d2ed ca3c f359 bfbc
00000240: 81f8 fc3d 8ff4 ed3d 9a8b adbd aed6 7c3d
00000250: 8805 9ebc b5ef a8bd 431b 1b3d 26b7 66be
00000260: 10ba 4abd 613d 523e 8763 113e a66f e23d
00000270: b071 d6bc ac21 1b3e f89e 9bbd 9715 77bc
00000280: b4d6 f4bb 64fe 033e 503b 903d 12ca 58be
00000290: 8c75 243d 53e7 69bd 7714 9abd 971e dd3d
000002a0: bb7e a13c 77dd efba b7b0 643a 0a6a fcbc
000002b0: 4f35 533e 1904 de3d b980 90bd b06e 113e
000002c0: 3456 033e f7be 42bc 4a1e 18bc cdde b03c
000002d0: 58bf 9ebc 9578 b7bd 42a7 b9bc 4a9a 2d3c
000002e0: dece de3b 0083 47bb 28ae 0abd a6df 8d3d
000002f0: d90f c8ba 803a eb3d 7120 4ebd eee5 253d
00000300: e52c a0bd 3c78 1e3e 3d90 823d d062 773d
00000310: 50b3 d6bd 26bd 55be 7356 7cbd ee63 5abd
00000320: 5065 7bbd c732 743d eb45 abbd 83f3 593d
00000330: 3bbd af3d e6fb 883d fd37 9f3d ee0b 753d
00000340: 47d5 4ebd 23e1 773c 5de7 803c 712f fc3b
00000350: b59f 183d 6786 803d d76f 85bd d7da 81bd
00000360: 40bb 79bd 5784 383d c4a3 90bd 0910 483d
00000370: 2597 913d 5905 35be a261 cfbd ac1b 71bd
00000380: 5957 983d b5d7 e53d 06c2 1c3e 3188 65bd
00000390: 1dbe 63bd 8e28 293c e1a2 243d 23a7 7c3b
000003a0: df70 6d3c f258 71bd 8963 0d3e 0fdf 68bd
000003b0: 2544 75bc 5aff bf3d 5faa ee3d 3a66 593d
000003c0: 1819 7d3b 3236 603d 016e 4d3a b3be 0fbd
000003d0: 1b1a 99bd 9988 673d 415c 123d c8b3 bfbd
000003e0: 9259 90bd 9d2a 0d3d 0b1e b43c add9 0b3e
000003f0: a6f8 04ba 382c 303e 8a06 153d 5cb7 a63d

fc4.bias f4 [2]
0.01900592 -0.0017805719
00000000: 4eb2 9b3c 1462 e9ba
