checkpoint_critic.pth (torch_old, 160988 bytes, 7 tensors)

fcs1.weight f4 [128, 48]
0.05552234 0.20733355 -0.019559605 0.040250435 -0.017380137 -0.1115452 0.048597816 -0.10840938
0.0010645846 0.10027462 -0.061663073 -0.018169448 0.048404768 0.03057981 0.045005057 -0.05771605
0.040512953 -0.01366246 -0.10444925 -0.13372318 0.0741434 0.011164396 -0.12477168 -0.039007142
0.07669354 -0.109012045 -0.0739265 -0.07321932 -0.042108856 -0.09962678 -0.029665565 -0.08510633
0.06877516 -0.16998067 -0.055645894 -0.14844383 0.018662453 0.09177822 0.06531724 -0.11703104
0.108834304 -0.033124592 0.09625484 0.09084649 0.012760757 -0.0020418474 -0.016090786 0.083077066
-0.038916208 -0.10174345 0.047954265 0.031244239 0.034083564 -0.02805452 -0.02346207 0.07495415
0.051537875 -0.19481498 0.10561916 -0.09079973 -0.09743492 -0.039440874 -0.016949022 -0.05476215
-0.08672224 -0.11656897 0.047033414 -0.020026885 -0.049041897 0.078747116 -0.044484593 0.045610096
-0.01896398 -0.09098555 -0.025621912 -0.108478464 -0.13493867 0.011510774 0.015303661 -0.017324086
0.09505457 -0.035586193 0.07691924 0.024762422 0.08074912 -0.015478305 0.0076688495 -0.062037308
-0.012065525 -0.032970004 -0.06907272 -0.1010424 0.098726906 0.049953125 -0.046781987 -0.15890919
0.04646793 0.062653765 0.07739962 -0.079480596 -0.10970246 -0.14438437 0.02637969 -0.07245337
-0.050883915 -0.0036912682 -0.053425107 -0.0030694134 -0.1326114 -0.06480553 0.017034773 0.08139913
-0.01124149 0.05417877 0.017017463 0.100237735 -0.09949565 0.026850976 0.014697309 0.09075121
0.06647854 -0.11729477 -0.050309766 0.027448444 0.02351411 -0.1434522 -0.04592619 0.06383018
0.045872893 -0.24829824 -0.05115124 -0.017539345 0.11168658 -0.023386938 -0.045240365 0.05378733
-0.017159302 -0.2131099 -0.03684124 0.012932514 0.08661789 0.02465638 0.048822034 -0.057211034
0.053653542 0.06209879 -0.044407394 0.045420565 -0.0075135375 -0.10384396 -0.10076128 0.030760737
-0.046535254 -0.090662524 -0.013148285 0.030060055 0.014869046 -0.012022304 -0.15229632 -0.02710283
0.072812326 0.13276303 -0.054621708 0.029558996 -0.052006222 -0.014791596 -0.048753917 0.089491315
0.039494593 0.06946858 -0.02293578 0.0023120337 -0.11031664 -0.12542841 0.039574422 0.042801104
0.041588925 0.058173753 0.09299144 -0.041495338 -0.05202209 0.044797815 -0.06670425 -0.06203676
-0.020435106 -0.053333692 0.014967129 -0.012880153 -0.01642647 0.024484593 0.017560914 0.057449836
0.05838446 -0.04071428 0.060714632 0.09985631 -0.0579734 -0.039477497 -0.044528387 0.068065815
0.089555 -0.114417896 -0.015898038 -0.047921404 0.08454798 -0.0014867095 0.052767653 0.05282869
0.06271382 -0.1220266 -0.058130994 0.08982416 0.02180423 -0.040576715 -0.11101753 0.12153437
-0.027094016 0.13515837 -0.022079078 0.008907657 -0.08976809 -0.06269225 -0.014379694 -0.039640244
-0.053429786 0.10193975 0.03914382 0.106135376 -0.0026742718 0.105073765 -0.042673156 0.12745851
0.060319666 0.117981106 -0.017052446 0.0837356 -0.090373784 0.09523152 0.0019893858 -0.07418458
-0.06078451 0.0513836 0.057602372 -0.013860991 -0.055255968 0.07760168 -0.06767694 0.0135894315
0.025368033 0.18847829 0.020160941 -0.050353914 0.019051652 -0.052165683 0.0027958753 -0.13668457
00000000: 656b 633d 3f4f 543e 773b a0bc a4dd 243d
00000010: ca60 8ebc cf71 e4bd 810e 473d bd05 debd
00000020: 8889 8b3a c85c cd3d 6b92 7cbd 18d8 94bc
00000030: 1444 463d 8282 fa3c 3957 383d aa67 6cbd
00000040: e9f0 253d 83d8 5fbc 7de9 d5bd bbee 08be
00000050: 7fd8 973d dfea 363c 4b88 ffbd f4c5 1fbd
00000060: 8111 9d3d b541 dfbd c766 97bd 03f4 95bd
00000070: 567a 2cbd 2009 ccbd 3305 f3bc 3a4c aebd
00000080: fed9 8c3d 6a0f 2ebe f3ec 63bd a901 18be
00000090: 00e2 983c 38f6 bb3d 0cc5 853d f8ad efbd
000000a0: 85e4 de3d a7ad 07bd 4221 c53d b90d ba3d
000000b0: 7e12 513c 84d0 05bb d3d0 83bc 4f24 aa3d
000000c0: 9a66 1fbd df5e d0bd b16b 443d ebf3 ff3c
000000d0: 359b 0b3d 98d2 e5bc 8733 c0bc 9081 993d
000000e0: 6119 533d 947d 47be dc4e d83d 35f5 b9bd
000000f0: f68b c7bd c18c 21bd add8 8abc 474e 60bd
00000100: 6e9b b1bd b6bb eebd 1ca6 403d 6c0f a4bc
00000110: 28e0 48bd 2b46 a13d 7a35 36bd a7d1 3a3d
00000120: 595a 9bbc a256 babd 0be5 d1bc f529 debd
00000130: 5d2d 0abe af97 3c3c 35bc 7a3c 3eeb 8dbc
00000140: f8ab c23d d4c2 11bd d687 9d3d 90da ca3c
00000150: cb5f a53d b798 7dbc f94a fb3b d51a 7ebd
00000160: 7bae 45bc 8e0b 07bd 0076 8dbd 51ef cebd
00000170: 5531 ca3d a69b 4c3d 789e 3fbd 17b9 22be
00000180: 2855 3e3d 9e50 803d b183 9e3d b9c6 a2bd
00000190: afab e0bd 7fd9 13be 381a d83c 6f62 94bd
000001a0: a76b 50bd 34e9 71bb 49d4 5abd 3628 49bb
000001b0: 48cb 07be c3b8 84bd 828c 8b3c 96b4 a63d
000001c0: 3a2e 38bc 8fea 5d3d 3568 8b3c 7149 cd3d
000001d0: 60c4 cbbd 94f6 db3c fbcc 703c c5db b93d
000001e0: e725 883d 3e38 f0bd 9d11 4ebd 8fdb e03c
000001f0: aaa0 c03c 22e5 12be 1a1d 3cbd 66b9 823d
00000200: 37e5 3b3d e541 7ebe f683 51bd acae 8fbc
00000210: efbb e43d f795 bfbc f64d 39bd 1a50 5c3d
00000220: aa91 8cbc 7b39 5abe d7e6 16bd e5e2 533c
00000230: b864 b13d 2dfc c93c 9df9 473d 1e56 6abd
00000240: d1c3 5b3d 4d5b 7e3d 87e4 35bd ea0a 3a3d
00000250: 1f34 f6bb 24ac d4bd ee5b cebd f1fd fb3c
00000260: c09b 3ebd 46ad b9bd e86b 57bc 8140 f63c
00000270: 4d9d 733c 33f9 44bc 91f3 1bbe c106 debc
00000280: a11e 953d 08f3 073e 03bb 5fbd b525 f23c
00000290: 7a04 55bd 7358 72bc 30b2 47bd 3947 b73d
000002a0: 15c5 213d 8b45 8e3d d1e3 bbbc 7d85 173b
000002b0: b1ed e1bd 4e70 00be ca18 223d 3650 2f3d
000002c0: 2659 2a3d 9a47 6e3d 4c72 be3d 04f7 29bd
000002d0: 1d15 55bd ea7d 373d 3d9c 88bd 421a 7ebd
000002e0: 8667 a7bc 6e74 5abd b038 753c 4707 53bc
000002f0: ce90 86bc ea93 c83c e8db 8f3c 8550 6b3d
00000300: 8b24 6f3d 04c4 26bd e8af 783d 7781 cc3d
00000310: 8475 6dbd 28b3 21bd 6663 36bd 1766 8b3d
00000320: 9d68 b73d ee53 eabd 9a3c 82bc 3c49 44bd
00000330: 7e27 ad3d b1dd c2ba e522 583d e562 583d
00000340: 1a70 803d 15e9 f9bd c41a 6ebd bbf5 b73d
00000350: c99e b23c c533 26bd 295d e3bd 03e7 f83d
00000360: 45f4 ddbc f566 0a3e 2fdf b4bc 6cf1 113c
00000370: 55d8 b7bd cb64 80bd cf98 6bbc cf5d 22bd
00000380: 31d9 5abd cac5 d03d 4555 203d 815d d93d
00000390: d642 2fbb ea30 d73d 0cca 2ebd 7c84 023e
000003a0: c111 773d 14a0 f13d 92b1 8bbc 927d ab3d
000003b0: e415 b9bd be08 c33d 5b60 023b 16ee 97bd
000003c0: 2ef9 78bd 9c77 523d 77f0 6b3d 3619 63bc
000003d0: 1554 62bd a1ed 9e3d 359a 8abd 35a6 5e3c
000003e0: 9fd0 cf3c 7400 413e 8f28 a53c e83f 4ebd
000003f0: 3612 9c3c afab 55bd 013b 373b 0af7 0bbe

fcs1.bias f4 [128]
-0.04650458 0.094347835 0.049519256 0.030395016 -0.05156908 -0.14200175 -0.18190707 -0.012555976
-0.13917905 -0.11738326 0.1189622 -0.04468862 0.039978523 -0.10492102 0.012125723 0.13210046
-0.0110903615 0.028520351 -0.13231607 -0.11820622 0.13569987 -0.1724959 -0.028396644 -0.17723382
0.044728115 -0.12450651 0.041496083 -0.038405783 -0.11404438 -0.047352467 -0.14652418 -0.07792547
0.0022039174 0.031153232 -0.06519363 0.025508514 -0.107271895 0.14283027 -0.120726794 0.09242643
-0.12964314 -0.16919051 -0.046502527 -0.091162875 -0.013164214 -0.022665085 -0.050725583 -0.1298357
0.15685792 0.08241678 -0.10846444 0.11729039 -0.11037302 -0.16902508 -0.043320004 -0.03607101
0.07003684 -0.06950872 -0.20201628 0.14338085 -0.04192975 0.09226161 -0.011037113 -0.12054496
0.023676261 -0.01456182 -0.15091845 0.044553213 -0.18123184 -0.15635778 -0.06515671 -0.18274717
-0.15094116 -0.04196316 -0.06780959 0.08921886 0.05604893 0.09729511 0.099662706 -0.0028956023
-0.095509954 -0.0834538 -0.09989019 -0.10110426 0.05207854 -0.14494659 -0.1089531 0.05936697
-0.08542984 0.047004525 0.0056775464 -0.03179424 -0.07673722 0.11448251 -0.12353542 -0.112344846
0.09639666 -0.12771627 0.10546177 0.09781456 0.042939533 -0.06761519 -0.023148831 0.0049830778
-0.13687229 0.13084263 0.07993189 -0.02376433 0.07880763 0.031787027 -0.1492429 -0.121765606
-0.047044702 -0.1892448 -0.07526828 0.10286893 0.1602333 -0.11496785 -0.14749615 0.1434951
-0.060919072 0.022927064 0.13833813 0.11770523 0.05001044 0.0063993246 0.022173828 0.043417223
00000000: 967b 3ebd 7039 c13d b4d4 4a3d f8fe f83c
00000010: 1a3a 53bd e868 11be d945 3abe 95b7 4dbc
00000020: f484 0ebe a266 f0bd 74a2 f33d 6a0b 37bd
00000030: 85c0 233d d5e0 d6bd f8aa 463c 5845 073e
00000040: 59b4 35bc 83a3 e93c dd7d 07be 1a16 f2bd
00000050: e8f4 0a3e c4a2 30be 14a0 e8bc c87c 35be
00000060: d434 373d 45fd febd ccf7 293d 624f 1dbd
00000070: 1a90 e9bd a9f4 41bd 6f0a 16be 6497 9fbd
00000080: 996f 103b 1035 ff3c 3d84 85bd 3bf7 d03c
00000090: 5eb1 dbbd 1942 123e 9c3f f7bd 114a bd3d
000000a0: 2cc1 04be 4740 2dbe 6f79 3ebd 9ab3 babd
000000b0: b7ae 57bc 21ac b9bc a1c5 4fbd a6f3 04be
000000c0: 5d9f 203e 21ca a83d 9b22 debd f235 f03d
000000d0: 400b e2bd e914 2dbe 5170 31bd 32bf 13bd
000000e0: 7a6f 8f3d 965a 8ebd 5bdd 4ebe 6ed2 123e
000000f0: 88be 2bbd a8f3 bc3d 02d5 34bc 47e0 f6bd
00000100: b8f4 c13c b394 6ebc 5e8a 1abe 6e7d 363d
00000110: d794 39be 411c 20be e270 85bd 1322 3bbe
00000120: 5290 1abe 90e1 2bbd c1df 8abd 61b8 b63d
00000130: 9093 653d a942 c73d f61b cc3d 25c4 3dbb
00000140: b99a c3bd d3e9 aabd 3a93 ccbd c00f cfbd
00000150: 4f50 553d e16c 14be ce22 dfbd c82a 733d
00000160: d7f5 aebd d187 403d b60a ba3b ad3a 02bd
00000170: 6728 9dbd ce75 ea3d 2300 fdbd 0e15 e6bd
00000180: 9d6b c53d 0ec8 02be 57fc d73d 0053 c83d
00000190: 5de1 2f3d d579 8abd 9ea2 bdbc 1649 a33b
000001a0: 4028 0cbe 9cfb 053e 55b3 a33d 6aad c2bc
000001b0: e565 a13d 1d33 023d 21d3 18be 3f60 f9bd
000001c0: f2b1 40bd 64c9 41be 4226 9abd f2ac d23d
000001d0: 3314 243e 4474 ebbd 3b09 17be 61f0 123e
000001e0: 4786 79bd 8ad1 bb3c 83a8 0d3e 710f f13d
000001f0: bfd7 4c3d 6db1 d13b e3a5 b53c 42d6 313d

fc2.weight f4 [128, 132]
0.07979347 -0.021744732 -0.075634584 0.067221835 0.009012033 0.06489108 -0.06833331 0.11006957
-0.022800578 0.03927544 -0.12185403 0.006199815 0.059382852 0.066483386 0.060495395 0.024054723
0.081476904 -0.07223579 -0.022157358 0.09307144 -0.05264152 0.08352943 0.08487875 -0.09180415
0.022283839 0.019510986 0.06751098 0.05391858 -0.021972433 -0.11267373 0.034485325 0.072827734
-0.049424406 0.07027437 0.07622692 -0.011959456 -0.11829457 0.049220387 0.08547084 -0.059375733
-0.04483655 -0.035386756 -0.11637357 -0.006809759 -0.12541862 0.1036301 -0.008466918 0.042385478
-0.006950851 -0.041297924 -0.034176372 -0.008779063 -0.08717429 0.022043655 -0.06565347 0.006704991
0.11501007 0.11329067 -0.007911913 -0.0062527973 0.039977025 -0.037454955 -0.1061617 -0.0028743926
-0.036481448 0.03875032 0.06181262 0.069605745 0.079472624 -0.16719475 -0.07849357 0.06465179
-0.026971567 -0.0716613 0.063945696 -0.09475619 -0.07145478 0.038460296 -0.010671549 -0.09455622
-0.0048682448 -0.036490638 0.016921906 0.05157667 -0.12628041 -0.042709474 0.05635885 -0.010452163
0.096814446 0.030146144 0.0028221176 -0.03731403 -0.0023905023 -0.058299765 0.033693105 0.010058751
-0.07618561 0.08675504 0.016806198 -0.10540523 -0.103065096 -0.13272914 0.006598988 0.07831768
0.12742475 0.062298983 -0.0132826585 -0.016245201 -0.107097395 -0.034410316 0.15551387 -0.027519565
0.0699618 -0.07841565 -0.059715036 -0.16887228 -0.070172936 0.047502995 0.11349079 0.060166903
0.04843218 0.008696765 -0.080430515 0.01802415 0.0701907 -0.0462131 0.019483652 -0.12517515
-0.053700693 -0.01742375 -0.1867191 -0.027302787 0.08075364 -0.06120573 -0.068360806 0.03791319
-0.12721896 -0.06800807 -0.10460357 -0.007246674 -0.0064565153 0.048819482 -0.024364904 0.049535953
0.010289953 -0.041686453 -0.06321497 0.056063354 0.007790067 0.08081086 -0.074738756 0.055464935
0.1126359 -0.09276864 -0.06832115 0.07633701 -0.00021476514 -0.2083341 -0.009631604 -0.15021044
-0.13239974 -0.029617582 0.0118235415 -0.060872346 0.019645274 -0.061193284 -0.019273335 -0.057943646
-0.037191745 0.07391308 0.04602021 0.08273701 -0.06469597 -0.10149603 0.23117396 0.10241561
-0.11954181 -0.09253362 0.082255125 -0.017047582 -0.10697553 -0.06368286 -0.076417595 0.014120463
0.06074549 -0.44871607 0.05012629 0.05782587 -0.02121627 -0.13037264 0.054930147 0.006535579
-0.044979177 0.007548054 0.11483721 -0.11991551 0.025882047 0.06261725 0.09848278 -0.048185326
0.038760915 -0.06146694 -0.11564649 -0.027184095 0.048646383 0.07045154 -0.013132109 -0.037617974
0.005706954 -0.014890704 -0.09602824 -0.098361425 -0.035318993 0.04680302 -0.067005515 -0.015968904
0.01140588 -0.16622865 -0.107027 0.0074729025 -0.2688245 0.06394168 -0.07003179 0.042825904
0.065969095 -0.19663276 -0.19020559 -0.10377333 0.13570896 0.011250949 0.14297862 0.07760637
-0.0072793956 0.06760243 -0.06013673 0.022133052 -0.04204412 -0.10471119 0.103637874 -0.098104775
-0.003849399 0.0032612595 0.029402146 0.01076124 -0.0030993356 0.020322727 -0.011908609 0.033190116
0.054996297 -0.10649631 0.040840335 0.035408918 -0.07762092 -0.0031965284 0.018333793 0.028037954
00000000: c26a a33d 0222 b2bc 4ee6 9abd 9aab 893d
00000010: 35a7 133c 9de5 843d 56f2 8bbd 286c e13d
00000020: 47c8 babc 49df 203d 9b8e f9bd d127 cb3b
00000030: 6f3b 733d 7128 883d 05ca 773d 690e c53c
00000040: 5ddd a63d 5cf0 93bd 5983 b5bc 3d9c be3d
00000050: a29e 57bd 7a11 ab3d e9d4 ad3d d003 bcbd
00000060: 998c b63c 81d5 9f3c 3243 8a3d bbd9 5c3d
00000070: 88ff b3bc 7cc1 e6bd 7c40 0d3d b526 953d
00000080: 3f71 4abd 02ec 8f3d dc1c 9c3d 98f1 43bc
00000090: 6c44 f2bd 519b 493d 560b af3d f833 73bd
000000a0: 88a6 37bd b4f1 10bd 4455 eebd 6624 dfbb
000000b0: bd6d 00be 053c d43d d4b8 0abc 659c 2d3d
000000c0: f7c3 e3bb 0328 29bd 86fc 0bbd 0fd6 0fbc
000000d0: 6f88 b2bd e594 b43c 5475 86bd 8bb5 db3b
000000e0: 668a eb3d f004 e83d f8a0 01bc 44e4 ccbb
000000f0: f3be 233d 5e6a 19bd 4e6b d9bd 4e60 3cbb
00000100: 926d 15bd a8b8 1e3d 3b2f 7d3d 758d 8e3d
00000110: 8bc2 a23d 1a35 2bbe 3dc1 a0bd 2868 843d
00000120: 7af3 dcbc 29c3 92bd f6f5 823d 890f c2bd
00000130: e256 92bd 8b88 1d3d b8d7 2ebc b1a6 c1bd
00000140: cc85 9fbb 3577 15bd cf9f 8a3c 0f42 533d
00000150: a74f 01be 21f0 2ebd 8ad8 663d 8d3f 2bbc
00000160: a746 c63d 0cf5 f63c 47f3 383b 99d6 18bd
00000170: f9a9 1cbb bccb 6ebd c801 0a3d 76cd 243c
00000180: 3307 9cbd a0ac b13d 27ad 893c b2de d7bd
00000190: cb13 d3bd 26ea 07be 533c d83b 0565 a03d
000001a0: a27b 023e 382d 7f3d 829f 59bc a814 85bc
000001b0: e155 dbbd d5f1 0cbd 073f 1f3e b670 e1bc
000001c0: 2248 8f3d 6298 a0bd c197 74bd dbec 2cbe
000001d0: d4b6 8fbd 8092 423d dc6d e83d 9271 763d
000001e0: d260 463d e07c 0e3c c1b8 a4bd 62a7 933c
000001f0: 24c0 8f3d f349 3dbd 2e9c 9f3c ea2d 00be
00000200: 42f5 5bbd 41bc 8ebc 4b33 3fbe 18aa dfbc
00000210: 2a62 a53d dcb2 7abd c000 8cbd dc4a 1b3d
00000220: b045 02be d147 8bbd 663a d6bd 8275 edbb
00000230: 2d91 d3bb f0f6 473d e898 c7bc 36e6 4a3d
00000240: 3197 283c 6abf 2abd da76 81bd b0a2 653d
00000250: d143 ff3b 2a80 a53d a210 99bd 332f 633d
00000260: a7ad e63d 7cfd bdbd f6eb 8bbd 9456 9c3d
00000270: 9432 61b9 8955 55be e0cd 1dbc c4d0 19be
00000280: cc93 07be 92a0 f2bc 87b7 413c 4855 79bd
00000290: 20ef a03c cfa5 7abd 1de3 9dbc 5156 6dbd
000002a0: 5f56 18bd be5f 973d b07f 3c3d 0672 a93d
000002b0: 527f 84bd 27dd cfbd deb8 6c3e 46bf d13d
000002c0: 56d2 f4bd 4482 bdbd 6075 a83d 5fa7 8bbc
000002d0: fd15 dbbd 296c 82bd d480 9cbd 8459 673c
000002e0: 43d0 783d 1dbe e5be 3a51 4d3d d2da 6c3d
000002f0: becd adbc 6880 05be 6ffe 603d 6928 d63b
00000300: 163c 38bd ab55 f73b c52f eb3d 4396 f5bd
00000310: 9606 d43c 793d 803d 57b1 c93d fa5d 45bd
00000320: c4c3 1e3d c2c4 7bbd 11d8 ecbd 2eb1 debc
00000330: 6e41 473d e648 903d 0f28 57bc 4e15 1abd
00000340: 6601 bb3b 24f8 73bc 74aa c4bd b771 c9bd
00000350: a6aa 10bd 86b4 3f3d 303a 89bd 38d1 82bc
00000360: badf 3a3c d837 2abe f930 dbbd 40df f43b
00000370: 5da3 89be dbf3 823d d46c 8fbd 376a 2f3d
00000380: ce1a 873d 195a 49be 41c5 42be 1d87 d4bd
00000390: 4af7 0a3e e755 383c fd68 123e 17f0 9e3d
000003a0: ff87 eebb 2573 8a3d ef51 76bd 6050 b53c
000003b0: 7536 2cbd d272 d6bd 1840 d43d 28eb c8bd
000003c0: 3346 7cbb dbba 553b c5dc f03c e94f 303c
000003d0: 391e 4bbb d97b a63c 541c 43bc 5cf2 073d
000003e0: cc43 613d bd1a dabd 3248 273d f108 113d
000003f0: b8f7 9ebd d97c 51bb c030 963c daaf e53c

fc2.bias f4 [128]
0.056262325 0.04856712 -0.09667869 0.04748179 -0.123582415 0.06910377 0.0039712125 -0.058424734
-0.044677157 -0.0077361534 -0.017747726 -0.0010108058 0.047223493 -0.0226081 -0.07772834 -0.0522111
-0.13564321 -0.10986625 0.043451168 0.07118554 -0.089530185 -0.108241074 0.0532474 -0.022131944
0.05048989 0.09549127 -0.048615966 -0.018722814 -0.04839923 -0.08446447 0.03964349 -0.106053255
-0.06740003 -0.048805606 -0.049908083 -0.04490235 0.037616357 -0.0075832903 0.054996546 0.038624506
-0.0825956 -0.015342178 0.07428848 -0.09960745 0.11046725 -0.063870184 0.07394859 0.023972994
-0.06406808 -0.08506756 0.03505151 0.025221284 0.049943607 0.124442555 -0.08557472 -0.04161974
-0.09975312 -0.09715631 -0.0019723286 0.011059631 -0.02419471 -0.004853157 0.03962521 -0.011464799
0.031510044 0.08625644 -0.033603307 0.04077417 -0.12913954 0.029760059 -0.040008932 -0.10056248
0.0040715537 0.038198095 0.077772416 -0.07438791 -0.075601555 -0.056316875 0.07841168 0.04788904
0.104981825 -0.0400342 0.006754915 0.06937928 -0.071429305 0.060855895 -0.068038866 -0.025760498
-0.1143349 0.03750234 0.093342416 -0.045488834 -0.07538861 -0.09524945 -0.064983636 0.06660489
0.05332495 0.026393024 -0.06874321 0.017153125 -0.07284312 -0.01661655 0.052220162 -0.02802971
-0.1311661 -0.057641678 -0.038089737 0.052721012 -0.027293246 -0.08975351 0.030375142 0.015006465
-0.05218296 0.031542752 -0.035673175 0.090999655 0.04877081 -0.069389604 0.06135741 0.06531852
-0.039509725 -0.03688292 -0.11903243 0.0675813 0.043282606 -0.023506282 -0.09046186 0.105488874
00000000: 5373 663d 51ee 463d 7aff c5bd 447c 423d
00000010: c718 fdbd 4786 8d3d f220 823b c64e 6fbd
00000020: 65ff 36bd 8f7f fdbb ae63 91bc 047d 84ba
00000030: 6c6d 413d 9f34 b9bc 0930 9fbd 4edb 55bd
00000040: 0ee6 0abe 8e01 e1bd daf9 313d b9c9 913d
00000050: 9a5b b7bd 7fad ddbd f219 5a3d 0d4e b5bc
00000060: 7dce 4e3d ed90 c33d 8921 47bd 9660 99bc
00000070: 453e 46bd b5fb acbd 3661 223d 7332 d9bd
00000080: 0709 8abd 63e8 47bd 6b6c 4cbd 87eb 37bd
00000090: 9c13 1a3d 407d f8bb 0f44 613d bb34 1e3d
000000a0: e227 a9bd c25d 7bbc 8f24 983d fefe cbbd
000000b0: a73c e23d 5fce 82bd 5c72 973d 0363 c43c
000000c0: 2036 83bd e737 aebd 2c92 0f3d de9c ce3c
000000d0: ab91 4c3d bddb fe3d cc41 afbd 7679 2abd
000000e0: 5d4b ccbd e3f9 c6bd 2f42 01bb 7433 353c
000000f0: fc33 c6bc 3b07 9fbb 0b4e 223d dad6 3bbc
00000100: ad10 013d 37a7 b03d 9fa3 09bd d102 273d
00000110: 283d 04be 5ecb f33c 68e0 23bd b4f3 cdbd
00000120: ab6a 853b 9b75 1c3d 2547 9f3d b058 98bd
00000130: fdd4 9abd 86ac 66bd 4e96 a03d 4c27 443d
00000140: b600 d73d e7fa 23bd 5658 dd3b b916 8e3d
00000150: 8749 92bd 0844 793d f657 8bbd ae07 d3bc
00000160: 6b28 eabd 0e9c 193d 4f2a bf3d 8052 3abd
00000170: 5865 9abd 2512 c3bd 2416 85bd 2568 883d
00000180: 436b 5a3d 2f36 d83c 3dc9 8cbd b684 8c3c
00000190: c62e 95bd 6e1f 88bc cfe4 553d 909e e5bc
000001a0: 6850 06be ae19 6cbd fc03 1cbd fdf1 573d
000001b0: 1696 dfbc b0d0 b7bd 4ad5 f83c addd 753c
000001c0: cdbd 55bd f932 013d 091e 12bd 075e ba3d
000001d0: e7c3 473d 231c 8ebd e851 7b3d b7c5 853d
000001e0: f3d4 21bd 8b12 17bd 46c7 f3bd 1168 8a3d
000001f0: 1a49 313d 3f90 c0bc 1144 b9bd 8d0a d83d

fc3.weight f4 [128, 128]
-0.023211418 -0.01635275 0.036755066 0.09153561 -0.03876593 0.053441513 0.024195243 0.019450199
-0.103350066 -0.17165972 0.10310681 0.047700744 -0.05320552 0.09199934 0.083527446 -0.030268189
-0.06858741 0.14932342 -0.0074972627 -0.06926082 -0.046894014 -0.069453076 -0.011805539 0.08904279
0.11287688 0.05674706 0.08626154 -0.008919344 -0.028100673 0.11678516 0.06098058 -0.0682219
-0.14560983 0.093668506 -0.03150979 -0.12776658 -0.02003535 -0.083617605 0.08761108 0.14291047
0.068871915 0.026515855 -0.084960036 0.042882208 0.00665929 0.04315572 -0.043990497 -0.025982933
0.03313817 0.01522322 0.03534535 0.024680566 0.11369031 -0.056413967 0.07948629 -0.031940937
-0.07625926 -0.101504475 -0.00472126 0.024174044 -0.03977706 -0.05906292 -0.047630362 -0.1176276
0.009738406 0.045155246 -0.21376556 -0.15245804 -0.12988596 -0.14093694 -0.00939628 -0.028713332
0.028575158 -0.17449437 -0.006392023 -0.11262829 -0.0866534 0.044724215 -0.055433102 -0.011151321
0.09266763 -0.06551002 -0.040786073 -0.05666199 0.029769536 0.1403634 0.060958605 -0.09620528
-0.05437451 -0.16910647 -0.037327092 -0.08722481 -0.03075557 -0.031425186 -0.12142588 -0.03353731
0.03216412 0.018314594 0.050400347 0.060719162 -0.15779871 0.024428079 -0.14937046 -0.054257903
0.032155726 0.12337783 0.071642 0.08283951 -0.2723905 -0.21121426 0.057752863 -0.17373207
-0.029242404 0.03710653 -0.1432893 -0.12913364 -0.04781071 0.08938454 -0.16180931 0.025580848
-0.110584565 -0.19335437 0.10878086 0.101223364 -0.009116027 -0.02250232 -0.022152781 -0.0002324831
0.055450924 -0.10598885 -0.008034468 0.020649262 -0.014758491 -0.00040914686 -0.03519782 0.06841547
-0.012158353 -0.07643793 -0.00609106 0.031726044 -0.0034062811 0.034199055 -0.085817344 -0.010438006
-0.022515202 -0.049899913 0.095213205 0.022226265 0.08342804 -0.052391477 -0.008494592 0.14875057
0.06888207 0.033897843 0.06894879 0.014001077 0.015549516 0.09110171 -0.007075365 0.018214675
0.041568644 0.021785367 -0.051691253 0.09041542 -0.0030422476 -0.08186656 -0.1059944 -0.03559399
-0.105651885 -0.1553015 -0.19023862 0.09395278 -0.055499014 -0.12582266 -0.054940175 0.03200817
-0.043546434 -0.2301447 -0.077714026 0.054482527 -0.0012935991 0.01701783 0.005266845 0.09548405
-0.00055715546 -0.03960683 -0.16903205 -0.1063463 -0.051930703 -0.0411983 -0.030814169 0.0029410901
-0.017210975 0.009795227 0.07371821 0.13838477 0.041131634 0.04117113 0.1266176 0.08416535
0.06519039 -0.039021865 -0.014544735 0.042983342 -0.009626511 0.052830275 -0.06794112 0.07092733
-0.044622004 -0.0643708 0.081150874 0.021445213 0.085337006 0.046249855 -0.012073794 0.11461623
-0.08712313 -0.0397756 0.08962817 -0.079352066 0.020406952 0.075594485 0.061743412 0.06103276
-0.11196326 -0.07038605 0.08015337 0.0093145715 -0.080289476 -0.037040506 -0.12705739 -0.08738325
-0.004902357 -0.023554858 0.024646606 -0.10046896 0.043275025 0.043278936 -0.051465914 0.007426159
-0.10694547 0.07112796 -0.035126623 0.07583657 -0.047000557 0.13121393 0.045755085 0.09057923
0.00084540196 0.119660236 -0.14130391 -0.024438176 0.10891749 0.017091218 0.06332958 -0.034063913
00000000: df25 bebc 34f6 85bc 7b8c 163d 0677 bb3d
00000010: 06c9 1ebd 7de5 5a3d 1a35 c63c 0656 9f3c
00000020: 33a9 d3bd 91c7 2fbe aa29 d33d db61 433d
00000030: 08ee 59bd 266a bc3d 7010 ab3d fef4 f7bc
00000040: 8e77 8cbd 3de8 183e 99ab f5bb 9ed8 8dbd
00000050: f013 40bd 6a3d 8ebd 056c 41bc 115c b63d
00000060: fe2b e73d 9b6f 683d e4a9 b03d 7122 12bc
00000070: 6233 e6bc 0f2d ef3d c6c6 793d ecb7 8bbd
00000080: be1a 15be 46d5 bf3d 6910 01bd 3ed5 02be
00000090: 2d21 a4bc b53f abbd 706d b33d 1f57 123e
000000a0: b80c 8d3d c737 d93c 87ff adbd 41a5 2f3d
000000b0: 2c36 da3b 0dc4 303d 612f 34bd 29da d4bc
000000c0: e4bb 073d d06a 793c 49c6 103d e62e ca3c
000000d0: 77d6 e83d 5512 67bd b5c9 a23d 80d4 02bd
000000e0: d12d 9cbd 94e1 cfbd cdb4 9abb a508 c63c
000000f0: 45ed 22bd f6eb 71bd 0e18 43bd bde6 f0bd
00000100: d68d 1f3c b5f4 383d 5ce5 5abe f61d 1cbe
00000110: d300 05be c651 10be dbf2 19bc 3938 ebbc
00000120: 7316 ea3c a7ae 32be 2d74 d1bb a9a9 e6bd
00000130: 5677 b1bd bd30 373d d20d 63bd 08b4 36bc
00000140: 87c8 bd3d 1e2a 86bd 4c0f 27bd 6716 68bd
00000150: 3edf f33c 6cbb 0f3e bbaf 793d 4607 c5bd
00000160: ceb7 5ebd 3f2a 2dbe 4be4 18bd eca2 b2bd
00000170: 1bf3 fbbc b2b7 00bd 22ae f8bd 6b5e 09bd
00000180: 86be 033d 7d08 963c 9870 4e3d a8b4 783d
00000190: fc95 21be 651d c83c 92f4 18be 893d 5ebd
000001a0: b9b5 033d 84ad fc3d 0ab9 923d c3a7 a93d
000001b0: c576 8bbe 8d48 58be 448e 6c3d d2e6 31be
000001c0: c48d efbc 04fd 173d 6eba 12be 9c3b 04be
000001d0: 2ad5 43bd 3e0f b73d 57b1 25be ed8e d13c
000001e0: 297a e2bd b0fe 45be 80c8 de3d 324e cf3d
000001f0: 635b 15bc c956 b8bc c079 b5bc b5c6 73b9
00000200: 8220 633d af10 d9bd 00a3 03bc a428 a93c
00000210: 99cd 71bc c382 d6b9 972b 10bd 691d 8c3d
00000220: d433 47bc 7d8b 9cbd 8497 c7bb 2bf3 013d
00000230: ea3b 5fbb 4f14 0c3d 01c1 afbd 2c04 2bbc
00000240: cd71 b8bc da63 4cbd 24ff c23d db13 b63c
00000250: 52dc aa3d 7298 56bd e72c 0bbc 1252 183e
00000260: 0b12 8d3d 77d8 0a3d 0635 8d3d c664 653c
00000270: 66c3 7e3c 8993 ba3d 77d8 e7bb f136 953c
00000280: e243 2a3d 3a77 b23c 35ba 53bd b82b b93d
00000290: 7260 47bb a8a9 a7bd 9813 d9bd 01cb 11bd
000002a0: 0460 d8bd 5b07 1fbe eacd 42be 516a c03d
000002b0: ef52 63bd a8d7 00be f308 61bd 001b 033d
000002c0: bf5d 32bd 0dab 6bbe 8828 9fbd 1229 5f3d
000002d0: fc8d a9ba fa68 8b3c 8095 ac3b 248d c33d
000002e0: 120e 12ba c53a 22bd bd16 2dbe 17cc d9bd
000002f0: 4ab5 54bd 8cbf 28bd ff6d fcbc 4ebf 403b
00000300: 08fe 8cbc 297c 203c 93f9 963d bdb4 0d3e
00000310: a579 283d 0fa3 283d 0ba8 013e e25e ac3d
00000320: 8a82 853d 64d5 1fbd 0a4d 6ebc 4d0f 303d
00000330: 83b8 1dbc 8f64 583d b724 8bbd 5942 913d
00000340: 90c5 36bd d7d4 83bd 6e32 a63d dfad af3c
00000350: 2bc5 ae3d 7d70 3d3d 2ad1 45bc eabb ea3d
00000360: 9d6d b2bd bdeb 22bd f98e b73d 5683 a2bd
00000370: 7b2c a73c 48d1 9a3d a9e6 7c3d 7dfd 793d
00000380: fe4c e5bd 9026 90bd 7327 a43d 259c 183c
00000390: cf6e a4bd c9b7 17bd 551b 02be fdf5 b2bd
000003a0: f3a3 a0bb 1ef6 c0bc aee7 c93c acc2 cdbd
000003b0: 2741 313d 4145 313d eccd 52bd 2357 f33b
000003c0: 3a06 dbbd 89ab 913d efe0 0fbd 3450 9b3d
000003d0: a883 40bd f25c 063e af69 3b3d 9a81 b93d
000003e0: f79d 5d3a 6d10 f53d f9b1 10be 9232 c8bc
000003f0: 2210 df3d e202 8c3c f0b2 813d 9a86 0bbd

fc3.bias f4 [128]
0.0775099 0.029460995 -0.02018531 0.09755143 0.028487623 -0.12626682 -0.033178765 0.0733881
0.103522755 -0.062004108 0.03290095 -0.08378135 0.08099403 0.076832786 0.04655149 0.053447604
0.12312206 -0.012912799 -0.051969327 0.09707975 0.05202896 0.0045833862 0.07659147 -0.050438397
0.04942483 0.12630703 0.017210798 0.014163281 0.075471036 0.014292911 -0.023738256 0.06535746
0.0160694 0.04656408 0.036832314 0.05375425 0.1019336 0.047286514 0.04910024 -0.041602638
0.08434362 0.003972462 -0.07042628 0.027906118 -0.036247008 0.019310515 0.051029358 0.058500696
-0.018012002 0.0415808 -0.037488792 0.030525275 -0.036576692 -0.02460428 -0.1024587 0.035973687
-0.03724013 -0.07104907 -0.043062642 0.04027303 -0.010532184 0.06365098 -0.0955025 0.020485068
0.064908616 -0.015038149 -0.02913325 0.035584167 0.064110614 0.076986514 -0.038616557 -0.03348776
0.044308934 0.023822986 0.06275487 0.07201037 0.052035436 -0.037597343 0.04661412 0.05366086
0.03580535 -0.049288727 0.04757217 -0.03005532 0.059111677 -0.014312684 0.017605428 0.06630863
-0.07974607 -0.02811134 0.0054992912 0.042284645 -0.030009555 0.08236685 0.014304538 0.06333566
-0.034301948 0.038838938 -0.07210514 0.054545373 0.022724008 0.090260886 -0.015785508 0.108453244
0.045037597 -0.123670265 0.07010672 -0.07119151 -0.023921354 0.09883286 -0.045335807 -0.07315968
0.10212419 -0.0031438202 0.01669008 0.073619194 0.011311462 -0.032401033 -0.027929643 0.055342793
-0.036327504 0.104235545 0.019769426 -0.007975261 -0.026983144 -0.017492482 0.083219185 -0.06705256
00000000: 83bd 9e3d 2f58 f13c aa5b a5bc 0bc9 c73d
00000010: e05e e93c 174c 01be 75e6 07bd 804c 963d
00000020: bd03 d43d 05f8 7dbd 26c3 063d 8e95 abbd
00000030: 33e0 a53d 825a 9d3d c6ac 3e3d e0eb 5a3d
00000040: 6b27 fc3d 3490 53bc cadd 54bd bfd1 c63d
00000050: 521c 553d 3b30 963b fddb 9c3d 7e98 4ebd
00000060: b171 4a3d a156 013e a9fd 8c3c 1b0d 683c
00000070: 8f90 9a3d d02c 6a3c bb76 c2bc 22da 853d
00000080: f9a3 833c fab9 3e3d 7bdd 163d 6b2d 5c3d
00000090: 90c2 d03d 81af 413d 551d 493d 8767 2abd
000000a0: 59bc ac3d 6d2b 823b a73b 90bd 5f9b e43c
000000b0: be77 14bd 1631 9e3c 2904 513d 6d9e 6f3d
000000c0: e88d 93bc a150 2a3d d98d 19bd 2410 fa3c
000000d0: 71d1 15bd ea8e c9bc ded5 d1bd 2559 133d
000000e0: 1b89 18bd 2d82 91bd 7462 30bd 55f5 243d
000000f0: 2e8f 2cbc 725b 823d d196 c3bd 4dd0 a73c
00000100: cfee 843d 9262 76bc daa8 eebc b4c0 113d
00000110: 6d4c 833d 1bab 9d3d 652c 1ebd 762a 09bd
00000120: 497d 353d 6c28 c33c a085 803d 2c7a 933d
00000130: 1c23 553d acff 19bd 73ee 3e3d 7dcb 5b3d
00000140: a1a8 123d fae2 49bd 09db 423d 9336 f6bc
00000150: 161f 723d bf7f 6abc 4239 903c d2cc 873d
00000160: e851 a3bd c149 e6bc 6633 b43b aa32 2d3d
00000170: 99d6 f5bc f3af a83d 955d 6a3c 20b6 813d
00000180: 3380 0cbd 9415 1f3d dcab 93bd f86a 5f3d
00000190: b327 ba3c b3da b83d 9c50 81bc bc1c de3d
000001a0: 5879 383d d646 fdbd 1d94 8f3d dbcc 91bd
000001b0: b7f6 c3bc e268 ca3d 0ab2 39bd bed4 95bd
000001c0: 7d26 d13d 8d08 4ebb a2b9 883c a9c5 963d
000001d0: b653 393c f2b6 04bd b5cc e4bc 20af 623d
000001e0: 26cc 14bd 7279 d53d 7ef3 a13c abaa 02bc
000001f0: c10b ddbc 654c 8fbc d26e aa3d da52 89bd

fc4.weight f4 [1, 128]
-0.13831866 0.06187827 0.20767944 0.091045395 0.123859264 -0.073398836 0.042120416 0.06085919
0.08911139 0.08262351 0.100151904 -0.076309174 -0.066495135 0.12810595 0.092068814 -0.11352635
0.04335932 -0.10052126 0.16106144 0.10089492 0.05986354 0.039133977 -0.06103758 0.086979054
0.1844911 0.045327682 -0.07945897 -0.080203615 0.035715576 -0.19615068 0.19713709 -0.0914639
0.06157438 0.06454663 0.01996093 0.053042274 0.050835963 0.06011646 0.23447339 -0.06641476
0.06468649 -0.04465832 0.08140334 0.047513146 0.12297102 -0.23327745 0.023462852 0.07290702
0.14539064 -0.16463521 0.14481999 0.21183652 0.069991775 0.15471892 -0.055412814 -0.047836106
0.087429285 -0.13455 -0.0423708 0.033001862 -0.10228481 0.13773008 -0.031029353 -0.045871247
-0.10318736 -0.077095 0.020709429 -0.045206115 -0.050583374 0.09580438 -0.06501619 -0.042684115
-0.06641363 0.08429605 0.109078765 0.0511779 0.0583035 -0.054404497 0.08853368 0.07468883
-0.10175718 -0.085990734 -0.075688526 -0.2091085 0.2527399 -0.05297948 0.029539235 -0.07974047
0.111602925 0.020740455 -0.051681235 0.17119844 -0.16544029 0.1852134 0.05987253 -0.033533685
-0.08029322 -0.04590499 0.05590972 0.034590546 -0.08658891 0.063624725 -0.23685841 0.09055256
0.076213405 -0.09771986 0.11742001 -0.07361717 0.05187112 0.05011573 -0.12274985 -0.062387813
0.045506768 -0.024832075 0.049445752 0.09721476 0.041852135 -0.07351788 -0.14209421 -0.070546806
-0.14178532 0.2396096 0.16781117 -0.079873785 -0.10267793 -0.026647847 -0.1760743 -0.058790088
00000000: 68a3 0dbe 1274 7d3d eba9 543e 0276 ba3d
00000010: eda9 fd3d 2152 96bd 7586 2c3d 7c47 793d
00000020: 0880 b63d 8436 a93d 711c cd3d fc47 9cbd
00000030: 9a2e 88bd 352e 033e 938e bc3d 8180 e8bd
00000040: 8b99 313d 17de cdbd 4aed 243e ffa1 ce3d
00000050: 7933 753d f34a 203d 8b02 7abd 1322 b23d
00000060: 3ceb 3c3e 85a9 393d 62bb a2bd cb41 a4bd
00000070: 7f4a 123d b9db 48be 4ede 493e 6d51 bbbd
00000080: 6b35 7c3d 0631 843d 1b85 a33c db42 593d
00000090: 5f39 503d ad3c 763d cb19 703e 7604 88bd
000000a0: 5a7a 843d a4eb 36bd cbb6 a63d 259d 423d
000000b0: 3bd8 fb3d 49e0 6ebe 2b35 c03c 4750 953d
000000c0: 49e1 143e 2296 28be b14b 143e aceb 583e
000000d0: d957 8f3d a36e 1e3e 8cf8 62bd cbef 43bd
000000e0: 200e b33d 7ac7 09be 018d 2dbd f62c 073d
000000f0: b37a d1bd 1d09 0d3e 4531 febc 7de3 3bbd
00000100: e553 d3bd fce3 9dbd d2a6 a93c 0c2a 39bd
00000110: 8330 4fbd 1635 c43d 3527 85bd 8ad5 2ebd
00000120: df03 88bd 68a3 ac3d b064 df3d eb9f 513d
00000130: a7cf 6e3d 40d7 5ebd 2551 b53d 75f6 983d
00000140: 1266 d0bd e91b b0bd 9602 9bbd 8a20 56be
00000150: 2067 813e 0301 59bd 44fc f13c f94e a3bd
00000160: 1390 e43d e3e7 a93c b4af 53bd a54e 2f3e
00000170: 2e69 29be 95a8 3d3e e63c 753d 9e5a 09bd
00000180: c670 a4bd df06 3cbd 9701 653d d1ae 0d3d
00000190: 8755 b1bd ae4d 823d 038b 72be 9f73 b93d
000001a0: c615 9c3d 5a21 c8bd e779 f03d 99c4 96bd
000001b0: d076 543d 2746 4d3d 4664 fbbd 5d8a 7fbd
000001c0: 4e65 3a3d a36c cbbc a187 4a3d 8818 c73d
000001d0: 256d 2b3d 8b90 96bd 2581 11be d87a 90bd
000001e0: 2c30 11be 385c 753e b1d6 2b3e de94 a3bd
000001f0: ce48 d2bd 964c dabc d24c 34be e0cd 70bd
